data.pth (torch, 5418 bytes, 6 tensors)

l1.weight f4 [8, 54]
-0.25278342 0.45030174 0.655679 0.2782784 0.6704421 -0.7042222 0.4763326 0.66130245
0.6548526 0.55993855 0.41687512 0.39920577 0.35324547 0.47675747 0.43527964 0.3118053
0.4732453 -0.6019978 -0.2668827 0.5877511 -0.17224665 0.67211485 0.62517786 0.58480483
0.6082765 0.30832276 -0.3688555 0.44602996 -0.3166006 0.45157102 -0.3437386 0.39017543
-0.12143333 0.89181757 0.48476583 0.29231822 -0.32852894 0.71267575 0.505965 0.426712
-0.5049546 -0.5316134 0.3753142 0.41126046 0.7215005 0.49452204 -0.7523978 -0.27918318
0.26683688 -0.61488366 0.23762028 -0.35815912 0.46897447 0.14468507 -0.19266321 0.49186245
-0.29928026 0.33475947 0.12669797 -0.34940085 -0.19970906 -0.32481396 -0.25008985 -0.28405893
0.52985346 0.59096515 0.123168 0.5080709 0.38406974 0.52351516 0.52344227 -0.4107982
-0.11660343 0.69235104 -0.18966831 0.5491984 0.74698365 0.78219604 0.45421177 0.26013517
-0.18612164 0.5562578 -0.1129791 0.5189498 -0.1473125 0.4554051 -0.060535226 -0.2580146
0.30770794 0.37748796 -0.14154178 -0.31126705 -0.08326754 -0.281 -0.2799805 -0.248184
0.36284077 0.3775007 0.11371472 0.26003882 -0.41669828 -0.033772577 0.20792837 -0.30986854
0.4937014 -0.25540805 -0.3063015 0.018820956 -0.03848979 0.28099573 -0.07143894 -0.2087833
0.08118738 0.20419686 0.20722415 0.044293962 0.26858985 0.15814604 -0.20822392 -0.3192732
0.6876446 0.021474987 0.45779565 -0.11157968 -0.11492607 0.24654545 0.63410306 -0.32289517
-0.03892311 -0.32253155 -0.3224031 -0.5012228 -0.11502069 -0.34536797 0.687806 0.5253803
0.5961108 0.21715425 -0.111495204 -0.0656131 -0.059198495 0.0132925995 0.39857453 -0.105707966
0.4768459 0.23458515 0.27272382 0.11415079 0.0747711 0.5376062 -0.045170642 0.2459962
0.18731506 0.5874259 0.1385728 0.109646924 0.25998095 0.7321598 -0.23802146 0.6849104
0.35810915 0.21375668 0.38567892 -0.05792458 -0.23308936 0.4154778 0.24844065 -0.39562756
-0.1713037 -0.3225962 -0.40452245 -0.22295018 0.5725611 0.41998315 -0.1819713 0.21285956
-0.1456255 0.32437012 0.404735 -0.41965738 -0.093274854 0.6626504 0.15637572 0.5208477
0.56406343 0.45941165 0.24987936 0.37020874 -0.26510164 -0.21687333 -0.26449463 -0.22660233
-0.22014913 0.43691316 0.19744962 -0.26792973 -0.13608772 0.2642924 -0.29587117 -0.49235144
-0.28409997 -0.18011123 -0.28938183 -0.17318751 0.2614813 -0.02142195 0.25900534 -0.25826347
0.43102953 0.19707334 0.3491923 -0.32821122 0.3660925 -0.14331587 -0.15187861 0.12724711
0.6378116 0.6398847 -0.13938046 -0.19287144 -0.6410205 -0.3729636 -0.23850794 -0.33015603
-0.08950453 -0.34835726 -0.15719599 0.25752175 0.0063024717 0.46184453 0.38953185 0.19721387
-0.21607043 -0.37294835 -0.16212758 -0.3729973 0.62571335 -0.37369424 -0.3730635 0.058168042
0.24369411 -0.15024598 -0.17451005 0.6348787 -0.1209174 0.36841604 -0.28218973 0.5361819
0.19146556 -0.09838308 0.53993565 0.23823237 0.1331492 0.0015017409 -0.18884765 -0.13588999
00000000: d46c 81be f38d e63e 94da 273f 827a 8e3e
00000010: 18a2 2b3f e847 34bf dee1 f33e 1e4b 293f
00000020: 6ca4 273f 2258 0f3f a870 d53e b364 cc3e
00000030: 97dc b43e 8e19 f43e f9dc de3e f2a4 9f3e
00000040: 354d f23e 871c 1abf d9a4 88be db76 163f
00000050: 6d61 30be b80f 2c3f a80b 203f c5b5 153f
00000060: 02b8 1b3f 7bdc 9d3e a1da bcbe 0a5e e43e
00000070: 7919 a2be 5134 e73e 81fe afbe 13c5 c73e
00000080: 0ab2 f8bd 284e 643f 3a33 f83e bcaa 953e
00000090: f234 a8be eb71 363f ec86 013f ff79 da3e
000000a0: b444 01bf d117 08bf 2f29 c03e bb90 d23e
000000b0: 42b4 383f fe31 fd3e 249d 40bf 19f1 8ebe
000000c0: d89e 883e 0469 1dbf bb52 733e a260 b7be
000000d0: 6c1d f03e 5328 143e 8149 45be 65d5 fb3e
000000e0: 433b 99be 9865 ab3e 1dbd 013e abe4 b2be
000000f0: 8880 4cbe 044e a6be c70b 80be 2c70 91be
00000100: 7aa4 073f 7e49 173f 813f fc3d ef10 023f
00000110: caa4 c43e 1705 063f 5000 063f 2454 d2be
00000120: c7cd eebd eb3d 313f 6938 42be 4498 0c3f
00000130: 523a 3f3f 003e 483f 728e e83e 7030 853e
00000140: ac96 3ebe e966 0e3f 9661 e7bd e5d9 043f
00000150: 17d9 16be db2a e93e c9f3 77bd 7d1a 84be
00000160: e58b 9d3e 1a46 c13e 54f0 10be 655e 9fbe
00000170: 2c88 aabd 3bdf 8fbe 9b59 8fbe f223 7ebe
00000180: 44c6 b93e c647 c13e 43e3 e83d cf23 853e
00000190: 7a59 d5be 1d55 0abd 2deb 543e 17a7 9ebe
000001a0: 6ec6 fc3e d8c4 82be 8dd3 9cbe 682e 9a3c
000001b0: 78a7 1dbd acde 8f3e 944e 92bd 4acb 55be
000001c0: 9245 a63d fb18 513e 9132 543e 966d 353d
000001d0: 9c84 893e 09f1 213e a738 55be c777 a3be
000001e0: 7a09 303f 50ec af3c 3164 ea3e e383 e4bd
000001f0: 5c5e ebbd 6976 7c3e 9454 223f 8452 a5be
00000200: d76d 1fbd db22 a5be 0512 a5be 2350 00bf
00000210: f88f ebbd 12d4 b0be 0e14 303f 537f 063f
00000220: b89a 183f af5d 5e3e 9957 e4bd 2960 86bd
00000230: 1f7a 72bd 34c9 593c f611 cc3e 6b7d d8bd
00000240: 2525 f43e 1737 703e 75a2 8b3e e4c7 e93d
00000250: 9721 993d 8fa0 093f da04 39bd 6ee6 7b3e
00000260: 85cf 3f3e 8b61 163f 07e6 0d3e 918e e03d
00000270: 391c 853e d36e 3b3f e6bb 73be 4a56 2f3f
00000280: 155a b73e 08e3 5a3e b577 c53e 5342 6dbd
00000290: faae 6ebe 82b9 d43e 3a67 7e3e b28f cabe
000002a0: 3d6a 2fbe 542b a5be 911d cfbe 0d4d 64be
000002b0: 5d93 123f 0808 d73e af56 3abe dbf7 593e
000002c0: da1e 15be d713 a63e 6d39 cf3e 55dd d6be
000002d0: e306 bfbd 75a3 293f f520 203e 4656 053f
000002e0: 7666 103f 0138 eb3e 60e0 7f3e 008c bd3e
000002f0: 67bb 87be 0b14 5ebe d76b 87be 710a 68be
00000300: c66e 61be 15b3 df3e 3c30 4a3e 162e 89be
00000310: 945a 0bbe 5551 873e 6d7c 97be 7d15 fcbe
00000320: 8d75 91be 146f 38be db29 94be 1158 31be
00000330: e1e0 853e 167d afbc 599c 843e 1c3b 84be
00000340: e7af dc3e 98cd 493e 55c9 b23e 4d0b a8be
00000350: 7a70 bb3e 65c1 12be 1186 1bbe 114d 023e
00000360: 9f47 233f 7ccf 233f c0b9 0ebe 1780 45be
00000370: eb19 24bf 16f5 bebe 6d3b 74be 360a a9be
00000380: 274e b7bd e25b b2be fcf7 20be e4d9 833e
00000390: f784 ce3b e376 ec3e b870 c73e 6ff2 493e
000003a0: 9141 5dbe 16f3 bebe c604 26be 81f9 bebe
000003b0: c02e 203f da54 bfbe 2e02 bfbe 9d41 6e3d
000003c0: f38a 793e 15da 19be c3b2 32be 6987 223f
000003d0: 8ba3 f7bd 07a1 bc3e 2c7b 90be 3843 093f
000003e0: 8c0f 443e 117d c9bd 3939 0a3f 30f3 733e
000003f0: 4458 083e 10d6 c43a 4761 41be bf26 0bbe

l1.bias f4 [8]
0.7042377 0.41606066 0.3223835 0.5560858 0.37293917 0.51229423 1.2865388 0.3511954
00000000: ec48 343f e705 d53e 730f a53e a45b 0e3f
00000010: e2f1 be3e b725 033f 4ead a43f e2cf b33e

l2.weight f4 [8, 8]
0.4906067 -0.97646993 0.89481455 -0.68321484 0.80276173 0.8150044 0.47781652 1.1047773
0.8456215 0.8526257 -0.3445359 1.0904876 1.4435616 1.3207189 0.034620743 0.43689448
1.0552943 0.59979737 -0.6983757 1.1139088 -0.41574898 1.1281534 -0.09422777 -0.22592852
-0.8122206 -0.40611827 0.14976221 0.9521431 0.1401231 0.6423468 1.0881531 -0.6338633
-0.2612987 -0.15813754 -0.35305807 -0.010492176 -0.09587616 0.3049815 -0.17622364 0.23311314
0.83593774 -0.06748245 -0.62163407 0.078219876 -1.249653 0.13010429 1.4060739 -0.65351635
1.2122843 1.074958 -0.7024112 0.926834 -0.6868447 0.145205 0.014206181 0.055372756
0.39420223 0.0018600288 1.2688155 -0.9120966 0.05709542 -0.6813586 0.73790663 1.0105448
00000000: cd30 fb3e eff9 79bf 9112 653f 2be7 2ebf
00000010: cb81 4d3f 21a4 503f 5ea4 f43e 5869 8d3f
00000020: a77a 583f ae45 5a3f 0267 b0be 1995 8b3f
00000030: a0c6 b83f 510d a93f 7bce 0d3d a2b0 df3e
00000040: e213 873f 528c 193f c0c8 32bf 9094 8e3f
00000050: 0ddd d4be 5567 903f 7dfa c0bd ce59 67be
00000060: b0ed 4fbf bcee cfbe 445b 193e a6bf 733f
00000070: 6e7c 0f3e d770 243f 9a48 8b3f dd44 22bf
00000080: f1c8 85be cfee 21be 07c4 b4be 60e7 2bbc
00000090: b85a c4bd 8926 9c3e f873 34be 36b5 6e3e
000000a0: 0400 563f 3d34 8abd 6923 1fbf be31 a03d
000000b0: a1f4 9fbf 0f3a 053e 3bfa b33f d94c 27bf
000000c0: 222c 9b3f 3998 893f 38d1 33bf fe44 6d3f
000000d0: 0ed5 2fbf 9fb0 143e 0bc1 683c 8bce 623d
000000e0: e0d4 c93e 36cc f33a 8c68 a23f 2a7f 69bf
000000f0: e3dc 693d 846d 2ebf 73e7 3c3f 8859 813f

l2.bias f4 [8]
-0.39475337 -0.12453642 0.35032737 1.0025623 -0.22696479 0.6590025 0.119130634 0.22651878
00000000: 1d1d cabe f30c ffbd 1c5e b33e f653 803f
00000010: 7569 68be 63b4 283f c3fa f33d 8af4 673e

l3.weight f4 [7, 8]
-0.9131048 0.6709615 0.560745 -0.94647324 0.27152148 -1.3160632 0.39965683 -0.56773424
0.02976029 0.5722873 -0.21588235 -1.2361568 -0.32724786 -1.2985553 -0.35919884 0.2758212
-0.6626589 -0.9842503 -0.52788246 0.68232834 -0.07853863 0.73959774 -0.770721 0.24631105
-1.3675644 0.085527726 0.6180095 0.015744844 0.2965981 0.3288273 0.53318566 -0.97768146
0.30297998 -0.98269534 -0.60623264 -0.1568146 0.19955376 -1.336601 -0.8151972 0.8251194
0.53550214 -0.22171591 0.23880346 -0.3350213 0.30860624 0.22943892 -0.18166521 -0.47768494
0.13726026 0.5290624 0.22077444 0.69965076 0.067159444 -0.56449336 -1.0931895 -1.6031022
00000000: 3cc1 69bf 22c4 2b3f fc8c 0f3f 124c 72bf
00000010: dd04 8b3e c274 a8bf d29f cc3e 0857 11bf
00000020: dacb f33c 6c81 123f 4310 5dbe 633a 9ebf
00000030: 088d a7be 0f37 a6bf e9e8 b7be 7038 8d3e
00000040: 03a4 29bf d4f7 7bbf 4e23 07bf 12ad 2e3f
00000050: dcd8 a0bd 4756 3d3f f94d 45bf f738 7c3e
00000060: 5a0c afbf 2929 af3d df35 1e3f 55fb 803c
00000070: b5db 973e 0d5c a83e db7e 083f 5549 7abf
00000080: 3120 9b3e ec91 7bbf 1032 1bbf 0294 20be
00000090: d257 4c3e be15 abbf c4b0 50bf 063b 533f
000000a0: ab16 093f 7f09 63be e588 743e e987 abbe
000000b0: a301 9e3e 09f2 6a3e 7206 3abe 1f93 f4be
000000c0: f48d 0c3e a270 073f b212 623e 501c 333f
000000d0: e48a 893d a382 10bf a2ed 8bbf 7432 cdbf

l3.bias f4 [7]
-0.4303841 0.05915763 0.12938192 0.030015947 0.42039958 -0.39309525 0.0939741
00000000: 4e5b dcbe 454f 723d b27c 043e 01e4 f53c
00000010: 9d3e d73e c843 c9be 7e75 c03d
